tests/test_model.onnx (onnx, 83195 bytes, 6 tensors)

0.weight f4 [4, 1, 3, 3]
000000 c3 52 e6 bc 87 6c d2 3d 82 8c 91 bd 9f 6e 25 be
       -0.028115636 0.10274606 -0.07106878 -0.1615548
000010 a8 7b cc bc 4b 54 23 3b 6a 7c 59 bd 3b 0b 7a 3d
       -0.024961308 0.0024922069 -0.053097166 0.061045866
000020 37 9a 35 3d eb 13 ad bd 9a 8d 94 bd fd 49 d1 3d
       0.044336524 -0.08451065 -0.07253571 0.1021919
000030 50 37 73 3d 75 2e 24 bd 8f 4a 95 3c af 78 41 bc
       0.059378922 -0.040083367 0.018224029 -0.011808558
000040 23 62 0e 3b b5 39 d4 3d 98 64 31 3d e2 95 db 3d
       0.0021725975 0.10362569 0.043308824 0.10721947
000050 97 51 ad 3c c0 eb 01 be 84 77 84 3e 0a 81 f1 bd
       0.02115707 -0.12687588 0.25872433 -0.117921904
000060 de 22 c8 bd b7 02 2f 3d 81 39 49 be e9 62 1e bd
       -0.097722754 0.0427272 -0.19650842 -0.038668547
000070 3f 21 5b bc 39 57 82 3c 19 a4 aa bd 1d 1e 6a 3d
       -0.013374626 0.015910732 -0.083320804 0.057157625
000080 48 a5 92 bc c3 35 a5 bd 7a 4f 50 bd eb 2f a0 bd
       -0.017901078 -0.08066895 -0.050857045 -0.078216396

0.bias f4 [4]
000000 e6 e8 96 3e 63 e9 3f be 48 a5 56 be 00 80 e9 bd
       0.29474562 -0.18741374 -0.20961487 -0.11401367

2.weight f4 [2, 4, 3, 3]
000000 d0 dd 15 be b8 04 ae bb b3 3e 4d 3d 6b b9 02 be
       -0.14635396 -0.005310621 0.050108623 -0.12766044
000010 4b 38 b5 3d ef 06 23 3e 01 ef 90 bd c7 e2 89 3d
       0.08848628 0.15920614 -0.070768364 0.067327075
000020 47 73 52 bd 1b cf ec bc 7d a6 03 3e 0e 0f 88 bd
       -0.05137947 -0.02890735 0.12856479 -0.066434965
000030 ef 68 2e 3c 60 b4 18 3c 84 2d c8 bd 0d 82 73 3a
       0.010645135 0.0093203485 -0.097743064 0.00092890934
000040 37 06 5e 3e 10 1e a8 3d a2 e9 14 be cb 90 4f bd
       0.21682058 0.08208859 -0.14542249 -0.050675195
000050 54 50 9c bb f3 76 63 3e cb f7 26 3e 65 5a a3 bd
       -0.004770318 0.22213344 0.16305463 -0.07976226
000060 f2 5e 71 3d 26 cc 8d bc 72 62 66 3e 22 f8 99 3d
       0.058928438 -0.01730926 0.22498491 0.07518031
000070 9f a3 12 be 13 df 9f bd 1f 6d c0 3d 42 50 02 3e
       -0.14320229 -0.0780622 0.09395813 0.12725928
000080 97 be 75 be 23 cf 32 3d 6e 06 c9 bd bc c7 a3 bc
       -0.23998486 0.043654572 -0.098156795 -0.019992702
000090 52 20 7a bd 12 f2 1c be 68 c0 7d 3d 3b 3d a7 3d
       -0.06106598 -0.15326717 0.06195107 0.08165976
0000a0 1e 41 03 3d c1 c1 37 3d 53 cd fd 3d 4a 93 50 3e
       0.032044522 0.044862512 0.12392678 0.20368686
0000b0 d3 27 24 3e 43 49 f9 bd f7 54 06 3d f8 8d 62 bc
       0.16030817 -0.12172177 0.032795873 -0.013827793
0000c0 4a 13 16 3d 18 ec f5 38 c7 f5 fd 3b 4f 96 5f 3d
       0.03663949 0.00011726486 0.007750246 0.054586705
0000d0 33 e3 a5 bd 5d bd 2c be d5 64 0a 3e 33 ee 86 3d
       -0.080999754 -0.16869111 0.13515027 0.06588402
0000e0 42 5a 13 3e b2 74 0b bc d5 c9 a6 bd 40 34 7c 3d
       0.143899 -0.008511709 -0.08143965 0.061573267
0000f0 37 d2 75 bb 13 17 a1 bd ea c0 db 3d 26 60 9a 3d
       -0.003750933 -0.07865729 0.10730155 0.0753787
000100 bd bb 69 3d cb 78 1b bd 37 17 fd bd c3 5c ee bb
       0.057063807 -0.037956994 -0.123579435 -0.0072742417
000110 eb f0 a8 3d d3 01 22 be e3 08 86 3d 65 ff 17 be
       0.082490765 -0.15821008 0.06544664 -0.14843519

2.bias f4 [2]
000000 4f 01 1f be bf 58 22 3e
       -0.15527843 0.15854166

4.weight f4 [10, 2048]
000000 2a 61 e0 3d af 82 8a bc d4 fe 34 be b2 36 5c bd
       0.109560326 -0.016908018 -0.17675334 -0.0537631
000010 e0 5f b1 bd 50 38 9f bd ac 28 91 3c cd 36 f0 3d
       -0.08660865 -0.07774413 0.01771959 0.117292024
000020 94 2c 40 bd f8 dc 61 3b 12 45 7c 3d 8f 47 06 3a
       -0.046917513 0.0034463983 0.061589308 0.00051223574
000030 c4 e4 be bd 5e f9 2f be 0a 02 f2 ba 0e 4d 24 bd
       -0.09320977 -0.1718497 -0.0018463742 -0.040112548
000040 c3 31 b7 3c b1 e9 12 3d a4 ba 34 3d 5b 64 c0 bb
       0.022362595 0.035867397 0.044123307 -0.0058713383
000050 2a e1 cb bd fd 0b 6f bd 09 c9 2a 3d 87 0e 69 be
       -0.09955056 -0.058361042 0.04169563 -0.22759448
000060 2f 1d 35 bc 90 54 3b be 4a f8 3b bd 88 e0 0c bd
       -0.011054321 -0.18293977 -0.045891084 -0.034393817
000070 ce 1e 3d be 99 18 31 bd fa b7 46 bd fd 55 d6 bd
       -0.18468782 -0.04323635 -0.048515297 -0.1046562
000080 47 7f 6d 3d f9 d3 39 bd 57 7e 9f 3b 75 01 a8 bd
       0.05798271 -0.04536817 0.004867356 -0.08203403
000090 10 6c 99 3d d8 ba 22 bd d7 a6 31 bd d5 54 a9 3d
       0.074913144 -0.03972897 -0.043372 0.082681336
0000a0 3f 9b 06 be b1 f8 8c 3b cd 63 4d 3d e7 7f 3c 3e
       -0.13145159 0.0043021073 0.050144006 0.18408166
0000b0 fa d3 b4 3d 87 ab 80 3e 4b 61 df 3d d2 2a 5c 3d
       0.08829494 0.25130865 0.10907229 0.053751774
0000c0 b3 82 82 3d 53 a0 2d be 70 f5 7c bd 68 e7 87 3d
       0.06372585 -0.1695569 -0.061757505 0.06635934
0000d0 e7 d4 e8 3c e2 9a 8d 3d 9b e2 2c bd d8 bb 51 3d
       0.028421832 0.06914307 -0.042208295 0.051204532
0000e0 4f 39 ef 3c 90 48 69 be 9b 82 cd bd b7 f4 8c bd
       0.029202132 -0.22781587 -0.10034677 -0.06882613
0000f0 5b 40 eb 3d 5f 9f 1a 3c 67 b1 0f bd 23 d2 ad 3d
       0.11486884 0.009437411 -0.035081293 0.08487346
000100 b5 e6 68 bd c3 e3 a4 bc e8 8b e9 bb d3 54 76 bd
       -0.056860644 -0.020128137 -0.007127274 -0.06013949
000110 b4 5e 3f be 92 e9 ac 3d a9 6d 10 3e 92 02 e5 3d
       -0.1868847 0.084429875 0.14104332 0.11182131
000120 9b 1e 6a 3d c7 1c 80 bc c7 56 cc bd aa 3c 6c 3d
       0.057158094 -0.015638722 -0.09977489 0.05767504
000130 85 9a a5 3a 71 35 0e be d3 14 7e bd 8d f1 62 3d
       0.0012634551 -0.13887574 -0.06203158 0.055406142
000140 14 66 20 3d e2 5d cd bd 2f 48 04 be 16 d9 13 3e
       0.03915985 -0.10027672 -0.12918161 0.1443828
000150 45 12 52 bd 60 67 54 be 02 c0 5c 3d 18 6b cd bd
       -0.051286954 -0.2074256 0.05389405 -0.10030192
000160 4f 78 c9 bc 40 5c 78 3d 60 fb 27 3e ca 2e 38 3c
       -0.0245935 0.06063485 0.16404486 0.011241624
000170 37 03 34 bd eb 37 25 bd ed 38 b6 3d 7f db 99 bd
       -0.04394838 -0.04033653 0.088975765 -0.07512569
000180 e9 37 98 3a 6f f0 fd bd 5b 51 a8 bc 25 6c 21 3d
       0.0011613342 -0.12399375 -0.020546606 0.039409775
000190 e1 c1 2f bc 45 d4 d6 3d 1c af 42 3d 20 27 85 3c
       -0.010727377 0.10489706 0.04753028 0.016254008
0001a0 2b 62 93 bd af 4b 1e bc 6a b8 75 bd c4 5e 1f 3d
       -0.071964584 -0.009661599 -0.059990324 0.038908735
0001b0 d4 b8 35 3d da 52 0f 3e 08 3c f3 bd f4 5f bb bd
       0.04436572 0.13996449 -0.118766844 -0.09149161
0001c0 1b 70 08 be d0 1d df 3c f6 b5 01 3e d5 68 f8 bc
       -0.13324015 0.027235895 0.12667069 -0.030323425
0001d0 57 fc 53 3d e8 6a 56 3d 3f 9c a9 bb 8b f4 ae 3d
       0.051754322 0.052348047 -0.0051760967 0.085427366
0001e0 ff ce ab 3d bb 2c 5b be 82 e3 1d be 9b 2f a1 3d
       0.08389091 -0.21403782 -0.15418819 0.07870408
0001f0 d2 e2 51 be da e1 a4 3d 77 64 db 3d 88 cc 03 be
       -0.20496681 0.0805089 0.107125215 -0.12870991
000200 ac 2d 9c 3d a3 37 57 3d ef 42 a0 bc bf 39 b7 3d
       0.07625899 0.052543294 -0.019563166 0.08946561
000210 f1 23 2b be 61 b0 35 3d 64 71 28 bd 00 ae b4 3d
       -0.1671293 0.04435766 -0.041123763 0.0882225
000220 f9 d4 2b 3e bb f0 df bd b7 42 f6 bc e2 0b 24 bd
       0.16780461 -0.109345876 -0.030061109 -0.040050395
000230 37 08 38 be 97 94 6a 3d 81 31 c2 3d e7 8f f0 bd
       -0.17971884 0.057270613 0.09482098 -0.11746197
000240 de ab 85 3d 67 cd 95 bd cd 56 52 be 0d 29 25 bd
       0.06526922 -0.07314568 -0.20540924 -0.040322352
000250 22 13 5e bd 53 6c b1 3d 78 36 50 bd 8b f4 1f 3e
       -0.054217465 0.08663239 -0.050833195 0.1562063
000260 cc 3c bb 39 42 dc 62 bd 7a 60 1e bc 66 95 92 3d
       0.00035712717 -0.055385835 -0.0096665565 0.07157402
000270 a7 c8 e9 bc 72 a9 cf 3d 0a 84 57 3d 6f 48 65 bd
       -0.028538061 0.10139741 0.052616157 -0.05597728
000280 dd e5 fb 3b d0 01 d4 bc a0 84 3d be 07 af 0d be
       0.007687314 -0.02587977 -0.18507624 -0.13836299
000290 a0 50 9b 3d b2 68 87 3d 0f 54 6c bd 0f 48 7c bd
       0.075837374 0.06611766 -0.057697352 -0.061592158
0002a0 e4 66 38 ba f6 a5 39 be 09 9b b1 3d c7 88 c3 bd
       -0.0007034375 -0.18129715 0.08672149 -0.095475726
0002b0 ff da 06 3e 11 b1 19 bd 64 b6 0b 3e 42 52 20 3e
       0.13169478 -0.03752238 0.13643795 0.15656379
0002c0 da 6b d2 bd 6a 24 df bd e3 5d ee bd 77 7a cb bd
       -0.10274477 -0.10895617 -0.11639001 -0.09935468
0002d0 0a 25 26 3d b7 1a 98 3c 6f c5 66 3d 5f 02 51 3e
       0.040562667 0.018567426 0.05634063 0.20411061
0002e0 c3 88 c7 bc 9c 35 b6 bd e5 27 df 3c 9d c8 fc 3d
       -0.024357205 -0.08896944 0.027240703 0.123429514
0002f0 5b 8d e7 bd a3 3f 5b 3d 77 6f 7c bd d3 3a 02 be
       -0.11306258 0.053527486 -0.06162974 -0.12717752
000300 46 06 25 be 9b 92 e9 3c 6f 3d 3a 3d ba 9a 44 3d
       -0.16115674 0.02851229 0.045468744 0.04799912
000310 6a 7f ad 3d ed f1 da bc 87 74 aa bd 40 12 50 be
       0.08471568 -0.026726687 -0.08323007 -0.20319462
000320 82 07 0b bd dd 0e 62 be 82 94 8f 3c 58 2c 17 bc
       -0.033942707 -0.22075982 0.017526869 -0.009226881
000330 32 6a 6c bd 00 66 58 bd e7 e5 7e 3c c7 a6 35 3e
       -0.057718463 -0.05283165 0.015557743 0.17739402
000340 a4 7f 30 3d 52 01 19 bc 35 14 d0 bb 2f 60 2a bd
       0.043090478 -0.009338694 -0.006350065 -0.041595634
000350 ae 96 b5 bd 20 b6 a9 3d dd 9c 14 be 40 68 6e bd
       -0.088666305 0.08286691 -0.14512964 -0.05820489
000360 88 55 17 bc d6 1b b9 bd 04 df 86 3d bb 27 47 3e
       -0.009236701 -0.090385124 0.065855056 0.1944875
000370 51 24 1c bc dd f0 dc bd 82 ff 98 bd ab c3 50 bd
       -0.009530143 -0.107881285 -0.07470609 -0.050967854
000380 8d dd 10 3e 53 5d fe bb 87 6f 70 3e 46 90 3a 3e
       0.14147015 -0.00776259 0.23480044 0.18219098
000390 6b 39 49 be c5 23 ca bd d3 4f 82 3d 3b 84 2e be
       -0.1965081 -0.09870104 0.063628815 -0.1704263
0003a0 8d 3f 62 bd 29 7f 88 bc ba ac aa 3d d7 bf be 3d
       -0.055236388 -0.016662197 0.08333726 0.09313934
0003b0 ba 48 72 3c 9f f6 f5 bd 73 d2 4f 3c 4b 0c 90 bd
       0.014787847 -0.1200993 0.012684452 -0.07033595
0003c0 82 be 36 bd 1f 5f a1 3d ad 5d 7c bd 2b b2 51 3c
       -0.044615276 0.07879471 -0.061612774 0.012798826
0003d0 02 aa 57 be db d7 9c bc a3 dc 8e bb 7d de 51 bc
       -0.21060947 -0.019145897 -0.004359798 -0.012809393
0003e0 51 8b 0d be c3 d4 3b 3d 07 15 0f 3d 53 b9 92 be
       -0.13822676 0.045857202 0.034932163 -0.28657016
0003f0 48 9f 78 3d 10 66 5f 3e e8 ed f9 3d af 27 5a bd
       0.060698777 0.21816278 0.1220358 -0.0532605

4.bias f4 [10]
000000 7b 1f 0a bc 82 29 b7 3b a2 a0 03 bc 73 43 5b bc
       -0.008430357 0.005589665 -0.008033903 -0.01338278
000010 7e 9d 79 3c de 3e 67 bc 46 00 48 3b cc ba 39 bc
       0.015235303 -0.01411411 0.003051774 -0.01133604
000020 44 2b a7 3c e0 4e 35 bc
       0.020406373 -0.011066169
